checkpoints/best_mlp_model.pth (torch, 59113 bytes, 19 tensors)

model.0.weight f4 [128, 11]
00000000: 99b4 cf3e 890f 0a3e b865 723a 21d7 7e3e
00000010: 9eb7 4dbd 9dd3 a63d b02c debd f341 de3d
00000020: 7406 133e 8660 afbd 7d04 353e 8cfb ad3d
00000030: db0a 233e a809 d73c 5382 073e 8d82 f5bc
00000040: 4cea 8b3e a4fd df3d 0797 d4bd 59ca e13c
00000050: 0db5 1fbe c895 273d 9018 d1bd 24f7 023e
00000060: 2f74 46be 0a65 79be d22b 81bc 010e 38be
00000070: 1394 ffbc bd18 81be 0976 893e 3ebe 89be
00000080: 0df8 9f3e c931 5c3d dd37 02be 69d3 903e
00000090: 2f7a 913d 06f0 893e 429a 043d 429e 8cbd
000000a0: b5a1 b73d 6f1a aebd 0c5c 053e b12b 5c3e
000000b0: e503 603e e423 37be 2576 b03d 1af2 433d
000000c0: b7c3 d93d 71e0 75be bde7 94be 7549 94bd
000000d0: 3834 28be 78f8 813e 99ec e63d d181 8a3e
000000e0: d507 a23d 1e2f cd3b 1297 773e 40ce eebd
000000f0: f099 953d 72f1 87bd 6084 613d 1b30 2dbc
00000100: 98b1 953d 7dc8 0abb f644 bc3e 5454 ecbd
00000110: 986b 02be cd20 7bbe 8a90 1e3e 4c6c db3d
00000120: d3cd 563e a9f1 6bbe d99e 8fbe 5d1b 49be
00000130: 472d 4cbe 71f3 933e b7c8 be3d cd5f 223e
00000140: 2b0a ecbd 8a7c 20be 8548 1a3e 51fd 9bbd
00000150: 5a9c c53d ada9 8abd 7454 863d d9a2 36be
00000160: 3265 8dbe 243b 9a3b d64c c53d 4178 38bd
00000170: 1e31 2c3e bb34 143e 1f60 11be 9d07 18be
00000180: e8cb 603e a08d 79bd 8a6c c2bd e784 d8be
00000190: 1863 21be 35bb 3ebd a0e0 d13c 7541 3cbe
000001a0: 0e13 883d 8833 1dbe 5662 4abe 29e5 82bd
000001b0: e4ba 61be 8855 e4bd a644 f23e 14d1 a3bc
000001c0: 4197 aa3d 4621 65be 552f 9fbd 9ea0 82bd
000001d0: b4fe da3d 634f f1bd ee93 f7bd 9c5a 48bd
000001e0: 7dd9 743b fbce c0bd f2fd 9f3d 6932 39be
000001f0: d04e 0abe f7e0 5bbe fa2d 51be 3e46 7abe
00000200: 66cc 2d3e 905e a7bd 3572 903e 1159 723d
00000210: 6075 93be e484 963e 897b a5bd 8834 01be
00000220: 87c4 84be 4954 94be b047 0d3d 853e 10be
00000230: 0339 023e 3554 27be 1f9b 293e 3dd8 bdbe
00000240: 45be 4fbb c265 8d3d 7bec 1b3e 8708 503e
00000250: b350 6c3e d1ae eabd f5e1 273d bd29 75bd
00000260: a136 043c 608c e5bd 0d9e 7a3e 064d acbe
00000270: 9624 393e 68f4 4e3e 7d32 093e 8f06 52be
00000280: b8ea 473e 499d db3a 6a5c 073d 8f30 98be
00000290: ebea a83d 5a73 713b 946a debd 91e6 323e
000002a0: c34b 233e 9284 e1bd 9eaa 54be 3fdf 62bd
000002b0: 4c0b 1e3e 778a 2dbe b516 30be 1b3e f6bd
000002c0: ba2e b7be fc3d e43d 9f27 483e 840d 68be
000002d0: 4629 87bb 8c75 033e 7a0c 113d da25 31bd
000002e0: 06be 003e 80ce 4e3d 5364 a43d e495 d6bd
000002f0: 561f f0bd 66ef 21bd 7a3d d0bd ae48 67bd
00000300: 1a50 743e fca3 423e 8e73 46bc b3b3 98bd
00000310: b39e 0e3c 2e32 42bd e7de be3d b256 d53d
00000320: 9fd0 0dbe f424 04be abc6 6f3e 6dec 843d
00000330: 9bd6 283d b050 98be cc7b 9ebd 5564 8ebe
00000340: 272d 09be 9942 223e 0dec 503e 733c ea3d
00000350: 1b71 96be 8018 36be b766 dbbc 8da0 543e
00000360: c0d1 183d f434 e0bd 0b30 1a3e 3125 eebd
00000370: ec3a 68be 1b9d 5b3e 9f8a 28be 5269 c4bb
00000380: 8959 9ebe 530f 963e af7d 843e 0f99 c2bc
00000390: 9a07 b2bd 8ef6 73be efc3 57be 0ec6 bd3e
000003a0: a1f7 783d 06b5 373e 0679 053e bdea 4f3e
000003b0: 0e14 0a3d 991a bbbd 4d3a 3abe 47e3 6fbe
000003c0: 991b a53d 6eab 17bd 4ab3 cabc 610a 4dbe
000003d0: 95a5 643c 4fc0 4ebe 26b5 4bbe 47e9 f13d
000003e0: a815 d5bd 74f8 213e 7927 d1bd ec6d 81be
000003f0: e274 2fbc 0e8d 35be c9b7 2bbe c2fc 59be
0.40567473 0.13482489 0.00092467247 0.24886753 -0.05022394 0.08145831 -0.10848367 0.108524226
0.1435793 -0.08563332 0.17677493 0.084952444 0.1592211 0.026249722 0.13233308 -0.029969478
0.27327192 0.1093705 -0.10380369 0.027562307 -0.15596409 0.040914327 -0.10209763 0.12789589
-0.19380258 -0.2435495 -0.015767965 -0.17974092 -0.031198537 -0.25214186 0.26847866 -0.26902956
0.31243935 0.053758416 -0.12716623 0.28286293 0.07103383 0.26940936 0.032373674 -0.06866123
0.0896639 -0.085011356 0.13023394 0.21501042 0.21876486 -0.17884785 0.08616284 0.047838308
0.10633033 -0.24011399 -0.29083052 -0.07240573 -0.1642617 0.2538488 0.11275596 0.27052167
0.0791165 0.0062617203 0.24178723 -0.11660433 0.07304752 -0.06637849 0.055057883 -0.010570551
0.07309264 -0.002117663 0.36771363 -0.11539522 -0.12736356 -0.24524231 0.15484825 0.10714015
0.20976953 -0.23041405 -0.2805088 -0.19639345 -0.19939147 0.2889667 0.09315627 0.15856858
-0.11525377 -0.15672508 0.15066727 -0.07616676 0.09648962 -0.06770644 0.06559077 -0.17835559
-0.27616268 0.004706757 0.09633796 -0.045036558 0.16815612 0.1447324 -0.14196824 -0.14846654
0.21952784 -0.06092608 -0.094933584 -0.42288896 -0.15760458 -0.046565253 0.025619805 -0.18384345
0.066442594 -0.15351689 -0.19764075 -0.06391365 -0.2204395 -0.11149126 0.47318 -0.019997157
0.08329631 -0.22375974 -0.077727 -0.063782915 0.10693112 -0.1178272 -0.12088762 -0.048914537
0.0037361078 -0.094144784 0.07812108 -0.18085636 -0.13506627 -0.21472536 -0.20427695 -0.24440858
0.16972503 -0.08172333 0.28212133 0.05916697 -0.28800488 0.29398263 -0.08080203 -0.12617695
-0.25931188 -0.28970554 0.034492195 -0.1408635 0.1271706 -0.16340716 0.1656308 -0.3707904
-0.0031699103 0.069041744 0.15226929 0.20315753 0.2307766 -0.11459125 0.040986974 -0.059854258
0.008069665 -0.11208415 0.24474354 -0.33652514 0.18080363 0.20210421 0.13398166 -0.20510314
0.19523132 0.0016755249 0.033047117 -0.29724547 0.08247932 0.0036842437 -0.10860172 0.17470767
0.1594687 -0.11011614 -0.2076821 -0.055388685 0.15433997 -0.16947351 -0.17196162 -0.120235644
-0.35777837 0.11144635 0.19546364 -0.22661406 -0.004124793 0.1283781 0.03541229 -0.04324899
0.12572488 0.050489902 0.08026948 -0.10477808 -0.11724727 -0.03953495 -0.10167976 -0.056465797
0.23858681 0.19007868 -0.012112511 -0.0745615 0.008704829 -0.047411136 0.09319859 0.104169264
-0.13849114 -0.12904721 0.2341563 0.06490407 0.04122029 -0.2974906 -0.07738456 -0.27810922
-0.1339613 0.15845717 0.20402546 0.11437311 -0.29383168 -0.17782784 -0.026782377 0.2076437
0.03730941 -0.109476 0.1505739 -0.116281874 -0.22678727 0.2144665 -0.1645913 -0.0059940005
-0.30927685 0.29308566 0.2587714 -0.023754625 -0.08692856 -0.23824522 -0.21070836 0.37065166
0.060783032 0.17940149 0.13034448 0.2030439 0.033710532 -0.091359325 -0.18186302 -0.23426543
0.080619045 -0.037028722 -0.024743695 -0.2002349 0.013955493 -0.20190547 -0.19893321 0.11812072
-0.10404521 0.15817434 -0.10212607 -0.25279176 -0.010709019 -0.1772959 -0.16769327 -0.21287826

model.0.bias f4 [128]
00000000: a09d 24be 9786 653c 7924 2abd c5c2 a83d
00000010: e924 803c 52cd 17be 976d cfbd b197 89bb
00000020: 152b 3cbe bd5a bc3c 33e3 b4bc f771 ee3d
00000030: b9d3 8b3d 6dbe 633e ca88 20bc 5ee2 5fbe
00000040: b9e3 053e 230c 49be 2b79 1dbd 9992 c2bd
00000050: 6e8f e2bd f6c9 dcbd 124f 8a3e 20f1 2c3e
00000060: a937 ad3d a3e2 8c3e 9a08 88be 7137 473d
00000070: 3683 413e dde5 4a3e 88f5 6dbe 5d8b d83d
00000080: bf99 2cbe 7b69 0abc 9050 81bd 5a1a 7dbe
00000090: e267 91be f319 48be 3c52 093e acf0 093e
000000a0: 7470 83be 6963 e4bd ccd5 8c3b d62d 84be
000000b0: 086e 283e 8c31 883e 963d 503d d55c 61be
000000c0: d593 843d 15ab dc3d 46c1 6f3e 4161 22be
000000d0: 6568 87be 6e3b 053e 9c7f b23c a8b2 c6bd
000000e0: 753e fbbd eb54 1cbe cb8d 743e bbb8 4abd
000000f0: fe26 593e 93bf 863e 3dce 0f3d 330b 7f3d
00000100: ee75 a6bc acce 513e df3f 88be 53a2 f23d
00000110: defb 38bd 15ec 0e3e 9ebb e7b9 3900 e1bd
00000120: 8d19 fbbc a0eb 213e 39c2 50be 43b6 3dbe
00000130: ed6e 84bd 9571 dfbd b5d7 ef3d a40a 473e
00000140: c0aa 01bd dad2 8f3e 1e70 fdbd d631 2abe
00000150: 41cc 0abe cbb4 50be cb1c 59be ec06 86be
00000160: 3184 84be d1a0 a53d 0bb0 393e 6547 8e3e
00000170: ef02 813e 9949 88bc 780b 6c3d 575e 35be
00000180: bee3 ea3d 0de8 91be 5e74 0d3e d394 4d3d
00000190: 2670 ca3d 93d9 dd3d ecf5 0bbe 6967 813e
000001a0: 3b53 0f3e 67b4 483e aae1 253d 30e4 3b3e
000001b0: 59cd 4a3e a5aa 073e 2ad3 673e 4327 63bd
000001c0: 8577 413e 737f 893d a421 333e f137 933e
000001d0: 2576 883d 653f dfbd c2e2 e8bc 0b4b a93d
000001e0: f738 4a3d 037f a8bd d984 6d3e dc87 383e
000001f0: 7629 3bbe 37a5 bfbc 2d8f d2bc ff10 40be
-0.16075754 0.0140091395 -0.04153869 0.08240274 0.0156426 -0.14824417 -0.101283245 -0.004198991
-0.1837581 0.022992486 -0.022080993 0.11642831 0.06827492 0.2224061 -0.009798238 -0.21863696
0.1307515 -0.19633536 -0.038445633 -0.095006175 -0.11062513 -0.107807085 0.2701345 0.16888857
0.08457882 0.2751666 -0.26569062 0.048636857 0.18897709 0.19814248 -0.23238194 0.105734564
-0.16855524 -0.008448 -0.06314194 -0.24717084 -0.2839957 -0.19541149 0.13410276 0.13470715
-0.25671732 -0.111517735 0.0042979475 -0.2581622 0.16448224 0.266003 0.050839983 -0.22008069
0.06473509 0.10774819 0.23413572 -0.15857412 -0.26446834 0.13010952 0.021789365 -0.09702045
-0.12267772 -0.15266769 0.23882215 -0.04949258 0.2120628 0.26318035 0.035108794 0.06226654
-0.020319905 0.20488995 -0.2661123 0.11847367 -0.045162074 0.13957246 -0.0004419954 -0.109863706
-0.030651832 0.1581254 -0.2038659 -0.18526559 -0.0646647 -0.10910336 0.11711065 0.19437653
-0.03165698 0.28090554 -0.123749 -0.16620573 -0.13554479 -0.20381467 -0.2120239 -0.26177156
-0.25882104 0.08087314 0.18133561 0.27788845 0.2519755 -0.016636657 0.057628125 -0.17711769
0.114692196 -0.28497353 0.13813922 0.050190758 0.09884672 0.108325146 -0.1366803 0.25274208
0.13996594 0.19600068 0.040498413 0.18348765 0.19804896 0.1324869 0.22639146 -0.055457365
0.1889325 0.06713762 0.17493302 0.28753617 0.06663159 -0.109007634 -0.028428439 0.082662664
0.049370732 -0.082273506 0.23195209 0.18020576 -0.18277535 -0.02339421 -0.025703037 -0.18756483

model.1.weight f4 [128]
00000000: 3c21 863f be84 6e3f 2d88 5c3f d16e 633f
00000010: 931d 6f3f e164 853f d7d4 6d3f 82e5 783f
00000020: e276 7b3f fc16 853f a702 913f 30dc 7e3f
00000030: a302 723f 5e87 7e3f ff48 893f 3c64 743f
00000040: 2fc9 803f 584e 6b3f ef6c 673f 037e 793f
00000050: b583 823f 6197 753f 729a 653f eb50 5f3f
00000060: 5907 833f 425f 7f3f 6924 893f 5537 693f
00000070: 96b2 5b3f cd33 653f c032 823f 885c 753f
00000080: bcd1 683f 13d7 6a3f eb86 613f d4cb 953f
00000090: cfb5 893f 2676 813f eb58 803f 2743 713f
000000a0: 49c0 733f d379 7a3f 3149 793f c9ce 663f
000000b0: 50e7 743f 77df 733f fb51 7b3f 2cb7 753f
000000c0: 3801 803f b8fb 7b3f 3d91 773f c11b 803f
000000d0: b137 803f 48a2 8b3f 30ce 603f 81f7 783f
000000e0: d862 643f 7b1d 5c3f 12da 833f 3c0d 643f
000000f0: 7656 823f 2b87 793f 19c5 843f 86e1 833f
00000100: 73cb 703f ae07 813f 35de 603f f6a6 823f
00000110: 2cb7 753f a89c 863f dd9a 6b3f c18d 643f
00000120: 8604 783f 871f 6b3f 7f01 863f 42ec 683f
00000130: 2d75 8a3f 7606 6d3f 0d3d 8d3f 72b9 7a3f
00000140: d22b 843f f3f6 6e3f 353e 7a3f a571 6a3f
00000150: 41d2 903f 4e41 703f 80b4 733f 36b2 753f
00000160: 15b5 713f ce42 8b3f e048 723f 87f8 833f
00000170: 4b1f 793f 5550 6f3f ccb1 7d3f c116 663f
00000180: a3d4 653f 7d4c 743f 6bf2 783f 92de 8e3f
00000190: 6380 863f 486d 7c3f f2ef 753f 09b6 7b3f
000001a0: 68c3 723f 509f 603f b569 853f 5f2f 783f
000001b0: 3430 753f b19e 6f3f 7010 813f ebe5 663f
000001c0: a954 823f 3165 683f fb9a 513f af18 873f
000001d0: 31a7 813f aa39 6d3f d35b 713f fddb 643f
000001e0: 61c5 643f d7e5 5f3f 4be0 6c3f 3cfc 703f
000001f0: 25fe 7b3f 84d8 743f b27a 843f 3e47 803f
1.0478892 0.931713 0.8614529 0.8884097 0.934045 1.0421411 0.9290289 0.972252
0.98228276 1.0397639 1.1328934 0.9955473 0.94535273 0.99425304 1.0725402 0.95465446
1.0061396 0.9191642 0.90400594 0.97457904 1.0196444 0.9593411 0.8968879 0.87232846
1.0236617 0.99754727 1.0714236 0.91100055 0.85819376 0.89532167 1.0171738 0.95844316
0.9094503 0.9173443 0.88096493 1.1702828 1.0758609 1.0114181 1.0027136 0.9424309
0.9521528 0.9784214 0.97377306 0.9015928 0.95665455 0.95262855 0.9817197 0.95982623
1.0000372 0.9843097 0.9670599 1.000847 1.0016996 1.0908899 0.8781462 0.9725266
0.89213324 0.85982484 1.0300925 0.89082694 1.0182636 0.97471875 1.037265 1.0303199
0.9406044 1.0080469 0.8783906 1.0207202 0.95982623 1.0516558 0.9203318 0.892788
0.968819 0.9184498 1.0469207 0.909855 1.0817009 0.92587984 1.1034256 0.9793922
1.0325873 0.93345565 0.9775117 0.9157966 1.1314164 0.9384965 0.95197296 0.95975053
0.94416934 1.0879762 0.9464245 1.031022 0.97313374 0.9348195 0.9909942 0.8987847
0.8977758 0.9542921 0.972449 1.1161673 1.050793 0.9860425 0.9606925 0.9832464
0.94829416 0.8774309 1.0422884 0.9694728 0.9577668 0.9360152 1.0083141 0.90194577
1.0182086 0.90779406 0.81877106 1.0554408 1.0129148 0.92666113 0.9428074 0.89398175
0.89363676 0.8746008 0.92529744 0.9413488 0.9843467 0.95642877 1.0349944 1.0021741

model.1.bias f4 [128]
00000000: 16fa 753d dd62 93bb 55fd 88bd ebd3 f1bd
00000010: da02 7fbd 61ba 4b3e 445c bc3c eacb cd3d
00000020: 26d0 283d 88bc 01bd 51e3 5d3e 4d96 8bbd
00000030: bf34 d73d ff7c dc3c 44b7 e13d 8828 2abd
00000040: e9ab 803d 581f 623d eb6d dcbd d5b9 d238
00000050: 737a f73d be50 9bbb a098 c2bd c097 ddbd
00000060: f1fc 7b3d b2ab 12bd a4b2 c33d ab28 6dbb
00000070: cccd 84bd 4832 54bd a89a b73d f5c1 97bd
00000080: 0bcb a8bd 6247 a0bd 5029 3dbe a443 3c3e
00000090: e6e3 de3d f556 bb3d 9d04 873c f2db 3c3c
000000a0: b467 c93c a33a 813d 7f28 ecba fae0 2e3d
000000b0: 91a9 d93c 77a6 af3d 005e 473c 8fb3 023c
000000c0: 15fb 963d bb0d 6b3d 64fb 40bd c8dd 8cbc
000000d0: 9feb 793d 4d57 283e 5842 fdbd 75d2 183d
000000e0: cfd6 81bd e988 c13c bd40 7e3d d5d6 a8bc
000000f0: 69a0 753d c348 dabd 40ff e83c ae9e fe3d
00000100: 59a5 86bd e181 8f3d 9755 dcbb 6d2c f03d
00000110: 826c bf3d 458d f03d d336 3bbd 2e4b a5bd
00000120: ab90 eb3d 6a0c f53c 34fd 033e 5bc7 08be
00000130: cd5e 9c3d 683b 19bd 8c74 c63d 1bfb eb3d
00000140: 64a7 ab3d 9e37 83bd 43d2 d0bb 2118 0ebe
00000150: cf20 2c3e 4436 2b3c b016 d83c 5f23 383d
00000160: d232 903d 85b4 d23d 744c 9a3c 1e09 2cbc
00000170: 9105 7abd 7320 13be 67ce 37bd 889a 9fbd
00000180: ea12 43bd 028e c13c 36f1 303d 2a31 d23d
00000190: c96d bb3d 299b e13d b47f 3c3d aa56 fabb
000001a0: 9df8 bdbc 5de9 f2bd 09da b43d 1c9f 583d
000001b0: f2c9 83bd b535 cb3d 4b8c 023e 55e2 a8bd
000001c0: 01be 9e3d 0a80 ebbd 1782 23be b182 5e3e
000001d0: 4eea 2d3e 9456 e2bd 06c2 08bd b215 15be
000001e0: a748 1ebe 4520 04be d6a7 f5bd 03e0 88bd
000001f0: 7472 913d 9ffc d8bd f8ae 983d 44a2 0fbc
0.060052954 -0.0044978694 -0.06688944 -0.11807998 -0.06225858 0.19895317 0.022993214 0.10048659
0.04121413 -0.031673938 0.21668746 -0.06815777 0.105081074 0.026915072 0.11021283 -0.04154256
0.06282789 0.055205673 -0.10763153 0.00010048194 0.12083902 -0.00473985 -0.09501767 -0.1081996
0.06152052 -0.035808273 0.09555557 -0.003618757 -0.06484565 -0.051805764 0.08965045 -0.07410041
-0.082418524 -0.07826115 -0.1847279 0.18385178 0.10883312 0.09147445 0.016481692 0.011527048
0.024585582 0.06310012 -0.001801744 0.042695023 0.026570113 0.085766725 0.012168407 0.00797738
0.07372109 0.05738614 -0.047114745 -0.017195597 0.06101572 0.16439553 -0.1236617 0.037310082
-0.063397996 0.023624854 0.062073458 -0.020610252 0.059967432 -0.106584094 0.028442025 0.124326095
-0.06574506 0.07007194 -0.0067240703 0.117272235 0.09346868 0.11745695 -0.04570658 -0.0807098
0.115022026 0.029913146 0.12889558 -0.13357298 0.07635269 -0.03741017 0.09690198 0.11522504
0.083815366 -0.064070925 -0.0063727214 -0.13876392 0.1680939 0.01044995 0.026378006 0.044955608
0.07040943 0.102883376 0.018835284 -0.010500221 -0.061040465 -0.14367847 -0.044874575 -0.07793146
-0.04762546 0.023627285 0.043198787 0.102632836 0.09151799 0.110159226 0.046020225 -0.0076397257
-0.023189837 -0.11860917 0.088306494 0.052886114 -0.064350024 0.09922353 0.1274883 -0.082462944
0.07751084 -0.11499031 -0.15967594 0.21729542 0.16983911 -0.1105167 -0.03338816 -0.14559057
-0.15457402 -0.12902935 -0.11994903 -0.06683352 0.07101908 -0.10595059 0.07455248 -0.0087667145

model.1.running_mean f4 [128]
00000000: 444f a03f 443e df3e d73b f9be 6e5f b33e
00000010: 24e2 273f d942 533f ced4 4a3f 0cfb 6f3f
00000020: cc2e 77bf ec56 aabf 7896 ab3f fe21 a0be
00000030: 627b 41bf d25e 4abf 588f 443f 862d ccbd
00000040: af19 6bbf 426d 24bf 1842 453e c55c c63e
00000050: 17d4 45bf 6951 9a3f 5e7b be3b 0a3c 00bf
00000060: 4eeb 2e3f 02cb 003d 1622 a5bf d7c4 febe
00000070: 8579 893e 519e f43e 5c78 3c3e b86d 0ebf
00000080: 132a fc3e 9e60 ac3e e7b0 39bf b853 7f3f
00000090: e075 b0bf 369c 41bf 34c8 52bf fce7 d63e
000000a0: c4af e9be a11e b5bf 92d9 ee3e ec36 bfbe
000000b0: 0d53 d2be 150f 9a3e f0e4 43bf 2a5e 8ebf
000000c0: bfa6 cf3e cd26 473f 3638 09be e358 143f
000000d0: 7162 96bf 0c5d b03f 7a7d 33bf 49d9 79bf
000000e0: c737 56be 727b ec3c 86ce 8bbf e411 0dbf
000000f0: c93c 1ebf d51b 613f 5fce 36bf d469 b23f
00000100: 7419 6e3c b194 903f f78f 91be 8afb 11bf
00000110: 515d 83be 8bc0 8a3f 2ba7 d43e 9287 43bf
00000120: 43f9 fc3e 4fa7 413f c049 4e3f 9831 ddbc
00000130: 0c56 79bf ea82 68be ad51 ad3f a6c9 0ebf
00000140: 4085 353f 3ce6 aebd 95ce 5d3f 17d5 ef3e
00000150: 7e55 b03f 503e 6ebf ee40 8abf 4f02 46bf
00000160: 92e8 77be 8c96 9f3f c6dc d23c c015 5ebf
00000170: 355f 4abe 6534 10bf 1cfb 923e 49fd 24bf
00000180: f105 96be c325 5c3f 0c97 93bf 4680 acbf
00000190: 81e1 5fbf 9848 89bf be7f fbbd 20d3 83bf
000001a0: 7a1b a2be d8ab dc3e 22e0 8bbf 7dc5 563f
000001b0: d524 0e3f 6a6c 96be ce01 a43f 33c8 8ebd
000001c0: 082a 3f3f 3d1d 41be 1e96 ecbd ce20 c33f
000001d0: 4ffe aa3f 2875 69bf 588b 473e 0e5b b23e
000001e0: 9709 96be 96e0 073e 0d59 2e3f 2ed0 b03d
000001f0: 8e78 ea3e 652f 373f 0e3e 96bf 1c78 45be
1.252419 0.43602192 -0.48678467 0.35033745 0.6557944 0.82523876 0.79230964 0.9374244
-0.9655578 -1.3307776 1.3405294 -0.31275934 -0.7557889 -0.79050934 0.76781225 -0.099696204
-0.91836065 -0.64229214 0.19263494 0.38742653 -0.7727675 1.2056094 0.0058130464 -0.5009161
0.68327796 0.031443603 -1.2901027 -0.49759552 0.26850525 0.47777036 0.18405288 -0.5563617
0.4925085 0.33667463 -0.72535557 0.9973712 -1.3785973 -0.75628984 -0.82336736 0.41973865
-0.4564191 -1.4149972 0.46650368 -0.3734659 -0.41078988 0.30089632 -0.76521206 -1.1122487
0.40556905 0.7779358 -0.13400349 0.5794813 -1.1748792 1.3778396 -0.7011334 -0.97597176
-0.20919715 0.028867457 -1.0922401 -0.55105424 -0.618115 0.87933093 -0.7140865 1.3938546
0.014532436 1.1295377 -0.2843015 -0.57024443 -0.25657132 1.084001 0.4153379 -0.7637874
0.49408922 0.7564592 0.80581284 -0.027001187 -0.9739692 -0.2270619 1.354055 -0.5577644
0.7090645 -0.085400075 0.86643344 0.46842262 1.377609 -0.9306383 -1.0801065 -0.7734727
-0.24209812 1.2467818 0.025740039 -0.8675194 -0.19762881 -0.5632995 0.28707206 -0.6444898
-0.29301408 0.8599512 -1.1530471 -1.3476646 -0.87453467 -1.0725279 -0.12280224 -1.0298805
-0.31661588 0.43099856 -1.0927775 0.83895093 0.5552495 -0.29379588 1.2813051 -0.06971779
0.7467351 -0.1885881 -0.1155207 1.5244386 1.3358859 -0.9119439 0.19486749 0.34835094
-0.2930419 0.13269266 0.6810463 0.08633457 0.457951 0.71556693 -1.1737688 -0.192841

model.1.running_var f4 [128]
00000000: ce84 493f c511 283e 9160 d03e 1571 423e
00000010: e6b4 f03e e330 b43e 0062 573f ced6 ec3e
00000020: 347b f73e 486e 6f3f 9562 773f 21f7 a83e
00000030: 8434 1b3f f669 313f e271 f33e d8de 2e3e
00000040: 3b14 163f 799f 173e 364f 9c3e 38dd 873e
00000050: 7575 153f a476 323f 0ef5 443e db91 c63e
00000060: 7e08 d33e f95e 703e af37 683f 0a10 713e
00000070: 5820 b23e a424 b83e cb28 b03e 7bc7 923e
00000080: 92e9 083f 329a 903e e084 063f d13b 593f
00000090: 22fe 2b3f 7abe 963e 1ea5 033f 40a1 4a3e
000000a0: 715d ca3e edd8 473f d251 0a3f 2fb4 1e3e
000000b0: 0b77 b83e fcf7 543e 47ab 0b3f c0ed 143f
000000c0: b28f 973e 06de 083f a045 963e eaaf 4a3f
000000d0: c38f 1a3f 2045 4c3f ff8c a73e 3eec 1d3f
000000e0: a265 473e 9739 a83e d33e 6c3f 15e2 9d3e
000000f0: 7354 db3e c97c a53e 6828 0a3f 4810 4e3f
00000100: 6558 a43e 873a 2d3f 3bf5 e03e a225 173f
00000110: 7586 ac3e 13d5 673f aef9 2b3e 9d19 e43e
00000120: 808f 023f 765a a53e 6046 033f 0fde 633e
00000130: 1c21 0b3f f481 923e 2be0 4e3f bf6b e83e
00000140: 824d d33e 1658 6a3e ec87 2e3f 1dd3 863e
00000150: 42bc 883f e7bc c13e f7f5 0a3f 2023 893e
00000160: c02d 7a3e 321c 423f 1967 523e 740d f73e
00000170: f8ef ca3e fc1a c53e ff34 223e 9492 bb3e
00000180: 7ba2 af3e 355c d83e 3066 423f 70c1 823f
00000190: 0123 0e3f 9d08 423f 3d56 bc3e 493f 603f
000001a0: 960f 743e 0945 c03e e77a 043f 48fd 943e
000001b0: 1345 9c3e 419d 923e a73b 293f 69e4 983e
000001c0: f0ee 643e 358e 393e d8f4 bd3e 4c79 443f
000001d0: d5b3 2f3f e686 5c3f 91cc 3a3e 0284 393e
000001e0: 06d1 ec3e b81a 6f3e 7540 553e 4d4e 773e
000001f0: 8b1e 153f d0d8 f33e 5546 1d3f a0e4 663e
0.7871827 0.16413029 0.40698674 0.1898845 0.47013015 0.35193548 0.8413391 0.46257633
0.48336184 0.9352765 0.966348 0.33001044 0.6062701 0.6930231 0.47547823 0.17077196
0.5862462 0.14806928 0.30529183 0.26535964 0.5838235 0.6971228 0.19234106 0.38783154
0.41217417 0.23473729 0.90709966 0.23541275 0.347903 0.35965455 0.34406123 0.28667817
0.534814 0.28242642 0.525465 0.848569 0.6718465 0.29442197 0.51423824 0.19788074
0.39524415 0.7806538 0.540311 0.15498422 0.36028323 0.20797724 0.54558223 0.5817528
0.29601818 0.5346378 0.29349995 0.79174674 0.6037561 0.79792976 0.3272476 0.616886
0.19472364 0.32856438 0.9228336 0.3083655 0.42837867 0.32321766 0.53967905 0.80493593
0.3209869 0.6766743 0.43937096 0.590418 0.33696333 0.905595 0.16794464 0.4455079
0.51000214 0.3229558 0.5127926 0.22252677 0.54347396 0.2861477 0.80810803 0.45394704
0.4127007 0.22885165 0.6817615 0.26332942 1.0682452 0.37839434 0.5428156 0.2678461
0.24431515 0.7582427 0.20547141 0.4825245 0.39636207 0.3849715 0.15840529 0.36635268
0.3430365 0.42257848 0.75937176 1.0215282 0.5552216 0.7579439 0.36784545 0.87596565
0.2383407 0.3755267 0.51750034 0.29099488 0.3052145 0.286356 0.6610665 0.29861763
0.22356772 0.18120654 0.37100863 0.76747584 0.68633777 0.8614334 0.18242098 0.18116763
0.46253222 0.23350036 0.2082537 0.24150963 0.5824973 0.47626352 0.61435443 0.22548151

model.3.weight f4 [64, 128]
00000000: 4900 133d 8911 063b 663d 1eba ffa4 93bc
00000010: b3eb c6bb f679 cf3d 2d08 303d 59c3 e03d
00000020: ff7d 74bd aa30 64bd 8782 713d 1722 f03b
00000030: 05ca 3ebd 2a2f d4bd 442c 96bc dafe 0e3c
00000040: 2a78 49bd 238a b73d a157 4a3d 1d0a 393d
00000050: f3d1 3b3c 6bea bfbc a335 adbd 1711 03bd
00000060: 0a66 bf3d f2a6 793d 649b 233c b197 bdbb
00000070: 063b e03c 8e41 6abc f6a4 40bd 5719 363d
00000080: 4647 02bd 9652 63bc ee3c 74bd 0dcc 063d
00000090: 8b8e f9bd b304 ecbc a091 1a3d 4486 debc
000000a0: 0c78 59bd 638c 56bd b5e6 c63c 858a b83b
000000b0: 4cb8 51bd 223d c63c 0e6c dcbd 5f2d 40bd
000000c0: 2c9d 7e3c 87fc 973d 4394 19bc 278a bbbc
000000d0: 8844 3cbd e39a 8c3d cfc5 fdbc d39b 38bd
000000e0: 4ef6 43bc 462d f9ba 92af 67bd 4719 0fbe
000000f0: 6712 20be 7d0a ec3b 95a3 c2bd d880 6e3d
00000100: 57f6 03bd f500 183d de5b babd 87b4 3dbd
00000110: 4ee7 043b 25a8 373d 13b8 07bd 7227 bb3d
00000120: db55 533c d475 273d 0652 013d 9b17 803d
00000130: 0800 e6bd f3b9 1fbd 5806 5e3d b138 05be
00000140: 91ee 42bc 71e9 50bc 8fbd f73d 5374 b03c
00000150: 8a12 5bbd 5662 49bd 0551 e03c 0dc9 773c
00000160: f050 583d 9e90 78bc 934d 58bb a42e cebd
00000170: d697 d63d d2bb f73c 71d2 323d 51d4 afbc
00000180: a3e5 8f3c caea 463d aeb0 c9bd 1e22 30be
00000190: b12c 31be 31f5 95bd 7ba7 bf3d 84e0 8abd
000001a0: c6eb 7d39 7c4b 043d de91 1dbe c277 c63a
000001b0: 4fac 19bb cfdc a8bc dd2c 003e 5f7e b0bc
000001c0: 402c e0b9 dc27 90bd e9a1 82bc b4b1 463c
000001d0: 816b 8a3d d21d 95bd 3a31 a13d de41 05bc
000001e0: c22e 033d 1116 a7bd 943d 213d 3ae8 8dbc
000001f0: cea6 d43b 7bf2 3d3c f7d9 d3bc a047 7a3d
00000200: 56f7 ecbd d580 e73c 3e87 85bd ce1b 243d
00000210: b253 1f3b 097d aebd ea34 41bd e49d a03c
00000220: 637b 8fbd e086 9e3b b93a b3bd f288 6b3d
00000230: 3290 b3bb ac04 cfbd bb56 2e3d e5fc f5bb
00000240: 682c 62bd 081a a3b8 8287 b93d ce39 983d
00000250: 2843 4b3d 5079 3fbb 24da 85bd 9222 c63c
00000260: 9456 0cbe dbc0 d63c b9e3 cfbd 354a 05bd
00000270: 91e7 e43c 074b b93d e132 1cbe c17d 20bd
00000280: 8f2f 623d 2fcf 833d a269 12bc 4133 17be
00000290: c048 43bd f651 983d c416 ac3d b32e 86bd
000002a0: 743f 773d ab99 4e3d 3152 bc3d e6fe df3c
000002b0: bf64 6f3b fb85 233d 21a4 0b3d e8b5 e23d
000002c0: d2bf a2bc 9240 18bd 36e8 503d b3ca b2bd
000002d0: 61bb e7bc 8d56 d5bd 81a0 9a3d 29c7 64bd
000002e0: 7fcc 5abb 1eff 583d ed24 00be d5f8 fcbb
000002f0: 944a 04bd 352b 703d 8a6d 063d bba4 c6bd
00000300: 39fb 7b3d 99a3 f7bd 77f0 983b e005 bc3d
00000310: ecb2 a73d 58c8 77bd ee34 58bd 3914 0f3c
00000320: d4fa 6dbc d59a 7cbd c585 41bd 4f36 813d
00000330: b28e 16bc ffdb ff3c bf53 c3bd 7b95 a5bb
00000340: ed96 783d 3c3e 8c3d 9196 863c 50c7 523d
00000350: 637f c3bd 0227 60bc 91b7 d43d bd91 0b3d
00000360: 2d74 a23b 7263 b53c 91b3 ee3b 9892 15bd
00000370: 49bf d03d 0214 76bc f648 273e 69cd a53d
00000380: 6cb4 b3bc 62d1 57bd 0f5d eabd 0851 72bd
00000390: 2f31 ccbd 134a adbc b131 4f3b 5b3a 533d
000003a0: 7808 8d3d c637 bc3d 3b19 9bbc 18e7 85bd
000003b0: 3e49 5abc 5331 8f39 7591 783d 3e8d 203d
000003c0: 09f6 4bbc 6e36 2ebd 6841 98bc 762a 23be
000003d0: 1b14 5a3d 65e6 3d3b 3196 0c3d db6e 073d
000003e0: 594d 1f3d 55a6 2f3d af54 293d 8def 643c
000003f0: 219c a6bd c740 a5bd 95be 01bd a989 09be
0.035888944 0.002045723 -0.0006036371 -0.018023012 -0.006070578 0.10130684 0.042976547 0.109747596
-0.05969047 -0.055710472 0.05896237 0.0073282826 -0.04657938 -0.10360558 -0.018331654 0.008727754
-0.049186863 0.08961894 0.049399976 0.04517566 0.01146363 -0.023427209 -0.08457496 -0.03199872
0.09345634 0.060950227 0.0099857785 -0.0057859053 0.027371895 -0.014297856 -0.04703232 0.04445776
-0.031806253 -0.0138746705 -0.05962842 0.03290944 -0.12185391 -0.028810835 0.037736535 -0.027163632
-0.053093 -0.052379977 0.024279932 0.005631747 -0.05120115 0.024199072 -0.10762797 -0.04691827
0.015540402 0.07421213 -0.009373727 -0.022893025 -0.045963794 0.0686548 -0.030978112 -0.04507048
-0.011960579 -0.0019010685 -0.05656392 -0.13974486 -0.1563202 0.0072033987 -0.09503857 0.058228344
-0.03221735 0.037110288 -0.090995535 -0.046314742 0.002027947 0.04483809 -0.03313453 0.09138383
0.0128988875 0.040883854 0.031572364 0.062545024 -0.11230475 -0.038995694 0.05420527 -0.13009907
-0.011897699 -0.012750969 0.12096702 0.021539843 -0.053484477 -0.049166046 0.027382383 0.015123618
0.052811563 -0.015171198 -0.0033005222 -0.1006749 0.10478179 0.030240927 0.043657724 -0.021463545
0.017565554 0.048563756 -0.09848152 -0.17200515 -0.17302205 -0.07322157 0.09358116 -0.06781104
0.00024215793 0.03229855 -0.15387675 0.0015141892 -0.0023448651 -0.020613102 0.12517114 -0.021544633
-0.00042757578 -0.070388526 -0.015946345 0.012127329 0.06758786 -0.072810784 0.07870717 -0.00813338
0.032027014 -0.08158506 0.039365366 -0.017322648 0.006489611 0.011593456 -0.02586077 0.061103463
-0.11570613 0.028259674 -0.06519936 0.04006558 0.002431136 -0.08519942 -0.047169603 0.019606538
-0.07005956 0.0048378557 -0.08751435 0.057503648 -0.005479836 -0.10108313 0.04256318 -0.007506954
-0.05521813 -7.7772944e-05 0.09059049 0.074329 0.049624592 -0.0029216595 -0.06535748 0.024186406
-0.13704902 0.026215008 -0.101508565 -0.032541472 0.02794245 0.090475135 -0.15253784 -0.03918243
0.055221137 0.064360015 -0.008936318 -0.14765646 -0.0476768 0.07437508 0.0840278 -0.06551876
0.060363248 0.050439518 0.09195364 0.027343225 0.0036528555 0.039922696 0.034092072 0.11069852
-0.019866858 -0.037170954 0.051002704 -0.08730068 -0.028287591 -0.10416899 0.07550145 -0.055853996
-0.003338605 0.052977674 -0.12514086 -0.007720093 -0.032297686 0.058634955 0.03281931 -0.096993886
0.06151888 -0.12091751 0.0046673375 0.09180808 0.081884235 -0.060493797 -0.052784853 0.008732849
-0.014525134 -0.061671097 -0.047246713 0.06309187 -0.009189295 0.031232832 -0.09537458 -0.00505322
0.06069081 0.06847808 0.016429218 0.05145961 -0.095457815 -0.013681175 0.10386575 0.034074534
0.004957697 0.022142146 0.0072845896 -0.036516756 0.10192735 -0.015019419 0.16336426 0.080958195
-0.021936618 -0.052689917 -0.11443531 -0.05915931 -0.099703185 -0.021153485 0.0031615312 0.051569324
0.06886381 0.091903254 -0.01893293 -0.06538218 -0.013323126 0.00027311835 0.060685594 0.0391972
-0.012448796 -0.042532377 -0.018585876 -0.15934166 0.05324183 0.0028976437 0.03432292 0.033064704
0.038892124 0.042883236 0.041340526 0.013973129 -0.08135248 -0.08068996 -0.031675894 -0.1343142

model.3.bias f4 [64]
00000000: befd 0ebd 9f35 993d f27a 2e3d f27d 7dbd
00000010: 277a 8ebd 0ed7 0c3b b07c aebd 020c 6dbd
00000020: d1e6 123d 7727 f5bc 4279 a6bb e1d8 07bd
00000030: a1cc 813d 6d06 933d 7a9f 733d 7798 9bbd
00000040: 6d60 e8bc a75e 1e3d ca89 483d f50d a4bc
00000050: 6984 443d f5d1 b3bb 50a8 723c 9d93 713d
00000060: aaf6 6f3d 01b0 8bbd 876d 58bd e1f1 0a3d
00000070: d0b5 573d 2590 acbc 219f a23d e15a 40bc
00000080: 3a43 2dbd 5108 2dbc 4a81 89bd 79c6 df3c
00000090: 8281 acbd 2bde a73d a2e3 80bd 9e18 643d
000000a0: 173e 7bbd c20c 94bc 4c9c 2dbd 927e 353d
000000b0: 4406 433d 32e7 b3bd 0dde 9dbd d758 553c
000000c0: 0130 b13a dece 083b 2d13 fa3c ab75 8cbc
000000d0: c3d8 933d 9286 8e3a ff57 0dbd ee02 f23c
000000e0: fc05 88bd f59f 13bd 3788 943c 190c 17bd
000000f0: d210 a2bd 3c8e 313d 7b51 c53c 8a40 d23c
-0.034909956 0.074809305 0.04259772 -0.06188769 -0.069568925 0.0021490487 -0.08519876 -0.05787278
0.035864655 -0.029926045 -0.005080373 -0.033165816 0.06337858 0.0717896 0.05947826 -0.0759744
-0.028366292 0.038664486 0.04895953 -0.020026186 0.04797784 -0.0054876753 0.014810637 0.058978666
0.058584847 -0.068206795 -0.05283883 0.03392208 0.052663624 -0.021064827 0.07940508 -0.011740417
-0.04230044 -0.010561065 -0.06714113 0.027316319 -0.08423139 0.08196672 -0.062934175 0.05568754
-0.06133851 -0.01807249 -0.042385384 0.04431016 0.047613397 -0.087843314 -0.077083685 0.013021669
0.0013518335 0.0020875256 0.030526722 -0.017145952 0.072190784 0.0010873845 -0.034507748 0.029542413
-0.066417664 -0.03604122 0.018131359 -0.03687677 -0.079133645 0.043348536 0.024086704 0.02566554

model.4.weight f4 [64]
00000000: 420a 843f 291b 823f b91d 843f cc50 753f
00000010: e4f8 873f 6347 823f 65c7 7f3f d19f 723f
00000020: 58db 683f c50e 843f 1eb8 6d3f cd75 863f
00000030: e4b7 7a3f 0877 7c3f 981b 663f d129 853f
00000040: d17c 553f 1ddb 7e3f b450 783f 4b5b 5d3f
00000050: a6f0 793f 7644 743f d204 753f 5645 6c3f
00000060: 9074 773f 5aac 7d3f 7281 773f fbc0 773f
00000070: 18e9 703f af74 833f ba4d 743f 060f 693f
00000080: 067b 6c3f 1095 5f3f 4e78 703f 6de9 603f
00000090: 9f2e 763f 86c3 813f d6d6 723f fba4 6a3f
000000a0: 446e 883f 8da6 843f 91c4 7d3f 1e47 833f
000000b0: e8ce 813f 7b8e 773f 03df 6d3f 6be1 5e3f
000000c0: 9d2c 863f 8428 813f 5f8c 843f dab7 593f
000000d0: 3366 463f 84dc 7d3f 232a 883f 6e38 6c3f
000000e0: 327a 833f fca3 863f 33f0 833f 59e5 7c3f
000000f0: fe6e 823f 0248 773f e835 7f3f e4ea 813f
1.031563 1.0164539 1.0321571 0.9582641 1.062283 1.0178035 0.99913627 0.9477511
0.9095969 1.0317007 0.92859066 1.05047 0.97936845 0.9861913 0.89885855 1.0403386
0.8339358 0.9955309 0.96998143 0.86467427 0.97632825 0.95416963 0.9571048 0.922933
0.96662235 0.9909111 0.9668189 0.9677884 0.9410567 1.0269984 0.954311 0.9103855
0.9237522 0.87336826 0.9393357 0.8785618 0.9616489 1.0137794 0.94859064 0.9165799
1.065865 1.0363327 0.9912806 1.0256078 1.0141268 0.9670178 0.92918414 0.8706271
1.0482365 1.0090489 1.0355338 0.8504616 0.77499694 0.99164605 1.0637859 0.92273605
1.0271666 1.0518794 1.0307678 0.98787457 1.0190122 0.9659425 0.9969163 1.0149808

model.4.bias f4 [64]
00000000: 9f9d 663d 11ae 2e3d 5019 1bbb b645 17bd
00000010: fa1c 643d b641 203c a5d4 f53c 29e3 98bd
00000020: d2b1 fcbd d05c 84ba 6f69 bcbd 01e5 c83d
00000030: eae1 abbc 6bbe 01bc 5b5d c7bd 259c e2bc
00000040: cc35 21bd e96b 3b3d 8c9c 30bd e873 31bd
00000050: 6afa 813d cae4 19bd bea5 133e 3b99 dbbd
00000060: 16eb f5bb 1ace be3d 5493 cdbc 5220 9abc
00000070: 3663 4b3c 0a80 203c d5ea 143e eeb3 e4bc
00000080: c8e3 fabc af2b 2fbe f2fd c1bd b80b 29bd
00000090: 917b 38bc 699f 65bb a84e 2fba 197f 8cbd
000000a0: d00b 1a3d 5be5 cc3d d9fb 64bd 2904 08bb
000000b0: 4c07 f03b 89a6 7e3d 5753 58bd 1a2e 99bd
000000c0: 0985 823d f2d8 42bc 0491 963d c44b a0bd
000000d0: b1ff 53be 689c e6bb 9979 cc3c f29b 9ebd
000000e0: cb26 1b3d 0e41 c0bc 634c 073d b75b 01bd
000000f0: f59f 89bc d99f cfbc e44b c9ba cf74 3f3b
0.056302663 0.04264647 -0.002366621 -0.036931716 0.055691697 0.009781292 0.030008623 -0.07465202
-0.12338604 -0.0010098461 -0.09199797 0.09809304 -0.020981748 -0.007918934 -0.09734603 -0.027662346
-0.039357945 0.045757208 -0.043118045 -0.043323427 0.06346591 -0.037571706 0.14418694 -0.10722586
-0.007504831 0.093166545 -0.025094666 -0.01881424 0.01241379 0.009796152 0.14542706 -0.027917828
-0.030626193 -0.17106508 -0.09472264 -0.04127094 -0.011259929 -0.0035037643 -0.0006687441 -0.068601795
0.03760892 0.100046836 -0.055904243 -0.0020754433 0.0073250886 0.06217054 -0.052813854 -0.07479496
0.06373031 -0.011892544 0.07351878 -0.07826951 -0.20703007 -0.007037688 0.024960326 -0.07744588
0.037878793 -0.02346852 0.033031832 -0.031581607 -0.016799906 -0.025344776 -0.00153577 0.002921391

model.4.running_mean f4 [64]
00000000: 6dbc ebbe 0700 d4be 8990 1abf 232b 64bf
00000010: 380c b83d bae7 bcbf d716 c7bf 566e f6be
00000020: a5c5 66bf 58a6 3fbf 9c6f 9b3c a3a8 043f
00000030: 0420 483f 03cd 27bf 46f0 fcbe dd3b bcbe
00000040: de99 9fbf 8b88 923f 93cc 3e3e d4e8 85bf
00000050: 99e5 abbf 4658 d03c 9c87 c2bf bf85 1dbf
00000060: cf22 1bbe 4586 96bf a070 373e 65a0 77bf
00000070: 8e6f bb3c b814 35bf c9ca f2bf dd78 6f3e
00000080: c6af 023f 5c62 1d3f 5d9e 43bf 35fa 86bf
00000090: 5024 f2bf 346c 87bf 869e 033f d12c ad3e
000000a0: 5fe4 6f3e c80d e0bf 22c6 0d3f 0f15 adbe
000000b0: 71b2 15be 2f8b b6bf a7b8 8a3d 6982 50bf
000000c0: 72de b5bf e803 3e3f 2ebf c7bf 6c94 1ebf
000000d0: 159f c9be 5127 0bbf 8c48 bdbf 9bc5 11bf
000000e0: bf23 b8bf c6cd e33e 0319 c83e a3b4 87bf
000000f0: 2453 81be 18e7 91bf 43b7 493e 19c5 97be
-0.46042195 -0.4140627 -0.60376793 -0.8912832 0.089867055 -1.4758217 -1.5553845 -0.48131055
-0.9014533 -0.74863195 0.018974118 0.5181982 0.7817385 -0.655472 -0.49402064 -0.36764422
-1.2468832 1.144792 0.18632726 -1.0461679 -1.3429443 0.025432717 -1.5197635 -0.61532205
-0.15149997 -1.1759726 0.17914057 -0.9672912 0.022880342 -0.7073474 -1.8968135 0.2338595
0.5104946 0.6147821 -0.7641352 -1.0545107 -1.8917332 -1.0579896 0.5141376 0.33823255
0.2342696 -1.7504206 0.5538045 -0.3380513 -0.14618851 -1.4261225 0.06773501 -0.8144899
-1.420851 0.7422471 -1.5605218 -0.61945224 -0.39379182 -0.5435687 -1.4787765 -0.56942147
-1.4385909 0.4449293 0.39081582 -1.0602001 -0.25258744 -1.1398649 0.19698815 -0.2964256

model.4.running_var f4 [64]
00000000: 9475 3240 af0b 243f 2282 3a40 326b b83f
00000010: 2eed 2940 6ae3 803f 19b8 353f fff0 5040
00000020: 19d2 ff3e 3e42 1740 ce52 bf3f 01d5 5340
00000030: 4003 ac3f acbe 833f 6907 c33e 2288 1740
00000040: 29da d03e db32 6d3f adfa 203f ded8 b43e
00000050: 6f03 ed3e ac21 db3f 2156 503f f7e5 493f
00000060: 2448 953e 90fa ee3f 54b4 2340 7748 1840
00000070: 318c 133f 08d6 3340 4b15 a73f 00e4 033f
00000080: 58b5 3e3f 9ad1 cd3e efc5 363f 7794 db3e
00000090: 69e2 f23e 354b 2940 cb7e 9d3f 883b 883f
000000a0: c085 4340 33c6 cd3f 1796 1f3f afc7 5340
000000b0: e540 7a3f f950 0b40 b564 543f ae78 553f
000000c0: e815 3040 eaea 603f 6ad1 a93f d788 ef3e
000000d0: 028c a53e 7dfc 1d3f e52e e23f ceac 0a40
000000e0: eb17 bf3f 7fa0 f93f 8cc0 2040 a1cd 0540
000000f0: 6dae 913f 7079 b03f 69c7 1440 be00 d03f
2.7884264 0.6408033 2.9141927 1.4407713 2.6551013 1.0069401 0.70984036 3.2647092
0.4996498 2.363418 1.4947145 3.3098757 1.3438492 1.0292563 0.3809159 2.367684
0.40791443 0.92655724 0.628825 0.35321707 0.46291682 1.7119651 0.8138142 0.78866524
0.291566 1.8670216 2.5578814 2.379423 0.5763579 2.8099384 1.3053373 0.51519775
0.7449546 0.40198976 0.7139577 0.42886707 0.47438362 2.6452153 1.2304319 1.0643167
3.0550385 1.6076111 0.62338394 3.3090627 0.9775527 2.1768172 0.82966167 0.8338727
2.751337 0.8785845 1.3267033 0.46784088 0.3233338 0.6171339 1.7670561 2.1667972
1.4929174 1.9502105 2.5117521 2.0906756 1.1381356 1.378706 2.324671 1.6250226

model.6.weight f4 [32, 64]
00000000: 81bb 23bc 909f 1ebe 4524 c2bc 5f81 31bd
00000010: 3b3a 2d3e 2927 8ebd 7638 30be 3c4a d43c
00000020: 82c5 f1bb 44a5 b03d 87d5 203e f0e6 923d
00000030: dc8a dc3c d990 463d 5678 3f3d fd09 aa3d
00000040: 9288 fcbd 1b6b 98bd eea1 3ebc 9cf4 0cbe
00000050: 318d aebd c4ae f23d c71a b73a e2fc d53d
00000060: 6dd3 cb3d 50a7 673c c19e d13d 8a64 25bd
00000070: dd9b ec3c 6c6e bcbd a463 493d 6384 8f3d
00000080: 3ebb 393d c425 97bc 31ba 02be e10c ddbc
00000090: 6399 c9bc a44a 1ebe fa1d 493d 041b 1cbd
000000a0: 8675 973d 963f 93bd 7eba a4bd 5746 1c3d
000000b0: c24e 7fbd 0efc 773b 0b4c af3d f36b 023d
000000c0: dd4f 333d 02c4 afbd a1b8 d43c 103e 8fbd
000000d0: 35ac ca3c bcff 01be 2e9f 75bd 07f2 133c
000000e0: 672f 603d c824 d03c 6dd9 f93d 1baf a63d
000000f0: f8da cdbd ae23 87bd eecd 95bd 0098 8cbd
00000100: f9cd 9bbd 985f 48bd a1c8 e1bc 607a ab3d
00000110: 8f1b 0a3d 0c8f 36be 376b 97bd 0092 14bd
00000120: 3e55 b9bd 3225 0a3e 2289 f13d ce06 07be
00000130: 2bc6 81bd 999f 8e3d 3b6d 8ebd 1e69 0a3e
00000140: 5c5e b83c 700c 9ebc a2b1 093d 00d5 e0bc
00000150: 9576 adbd 8111 cf3c 5205 f03d 9d06 c93d
00000160: 5247 de3c f7ce 033e 0155 edbd 58c5 703d
00000170: ecf6 28bd 3b59 06be 88c7 093e b646 0abd
00000180: d112 dabd fd5b 5a3d d805 093e 3fab 9e3d
00000190: 4f75 41bb 3a4c 3c3d 63f0 0b3e 18b7 30bb
000001a0: 796f 20be e942 6cbd 0da8 acba 085a 513c
000001b0: 4408 8bbd f151 a8bd 2440 11bd 566c 03be
000001c0: f9e9 143e acee 94bd 0195 8fbd 729a 7dbd
000001d0: 01c8 03bd 3d24 2dbd 4384 55ba 0c5b 833d
000001e0: 749f 8f3c 6b0d 033d 816f 253d d932 2a3e
000001f0: 0814 943d fa64 1cbd b069 c23d a4b5 fabd
00000200: bf7f ffbc 7c16 ab3d b381 313d 549d 5d3d
00000210: 8106 e23d 7797 1ebe 800f 80bd c9dc 6f3e
00000220: 5321 d33c 028f b13d 1985 f23b aec3 03be
00000230: a815 503d 4c8d f8bd 1f64 9cbd d496 b93b
00000240: 0cd9 05be a3d0 a73d 4186 31bb fe7f 96bd
00000250: 95a8 d83a 34f1 0b3e c863 a43c 20b3 cdbc
00000260: a6aa 9c3c e702 5dbd 14da fbbd eaeb afbd
00000270: 480b 61bc 3634 03be 1ddb 9dbd d2ac 913c
00000280: 002e 383d 3cb8 003e 07e6 933d ee79 203d
00000290: a893 d1bd 4dbd 433d 825d c4bd 1955 703d
000002a0: 9f99 0bbe 5b34 59bb ff19 90bd bd80 9abd
000002b0: 07e5 bc3d 08ac 34bc 420f db3d 0c92 91bd
000002c0: e06a 293e de75 113e 6872 82bd ce5a b4bc
000002d0: 76f6 0fbd 2d26 9cba ce46 033c da93 d2bd
000002e0: 22b0 cebc c893 a63d f7b7 18bd 6261 35bd
000002f0: 99ed 283e 6529 5bbd 86c8 ba3d 9852 88bd
00000300: 2656 e9bd c207 ef3d 490c 1cbe 70c0 07be
00000310: 62a4 3dbd 2678 a2bd 8114 293d bf7e 6bbd
00000320: cac8 05bc 96f5 d53c b111 5c3d e065 84bd
00000330: 3981 1a3c 421d 47be 5d5b 933c 3c12 85bc
00000340: de25 d6ba 4200 9bbe fadd c2bd 4e2e 07bd
00000350: f388 d23d 59b9 0bbd c34c cebd c3f2 073e
00000360: 8107 613c 462e 8f3d da69 d2bd d7a2 2fbd
00000370: 83ec 2b3d 6ea5 19be cd49 ff3d 48cd cfbd
00000380: 269e 62bd de8d e4bd 20b1 92bd c9a4 d63d
00000390: 44ab 26bc db73 2ebd 0bd1 103d fbfa e63c
000003a0: 87ff 8fbe bdb7 82bd 9027 4c3d 5449 543d
000003b0: 3eb5 8cbd 4986 44bd fed5 0bbe e21d 973d
000003c0: 1a02 0ebc 9e26 12be 0aec 12bd 78c3 9ebd
000003d0: 40b2 febc a945 40bd db83 94bc 275c 6abd
000003e0: f4c9 ec3c ff85 e1bd 0b4c 83bd f66d 82bd
000003f0: 2a8f 9f3d 0b2c 983d 2c35 e7bd 21d4 4fbe
-0.009993435 -0.15490556 -0.023698935 -0.04333627 0.16916744 -0.06941063 -0.17209038 0.025914304
-0.007378281 0.08625272 0.15706454 0.07172954 0.026921682 0.04847798 0.04674562 0.08302686
-0.12330736 -0.07442304 -0.011635287 -0.13765186 -0.08523024 0.1184974 0.0013969772 0.10448624
0.09952436 0.0141390115 0.10235358 -0.040379085 0.028882915 -0.09200749 0.04916729 0.07007673
0.045344584 -0.018450625 -0.12766339 -0.02698368 -0.024609273 -0.1545816 0.049100854 -0.0381117
0.07395463 -0.071898624 -0.08043383 0.03815302 -0.06233097 0.0037839445 0.08559426 0.03184123
0.043777335 -0.085823074 0.025966944 -0.06994259 0.024740318 -0.12695211 -0.05996626 0.009029872
0.054732706 0.025408164 0.12199674 0.081388675 -0.100515306 -0.06598602 -0.073146686 -0.06864929
-0.076076455 -0.04891929 -0.027561488 0.083729506 0.03371769 -0.17828006 -0.073934965 -0.03627205
-0.09049462 0.13490751 0.11793734 -0.1318619 -0.06336626 0.069640346 -0.06954428 0.13516662
0.022505932 -0.01929304 0.03361667 -0.027445316 -0.08469883 0.025276901 0.11719765 0.098157145
0.027133618 0.1287192 -0.11588479 0.05878195 -0.041251108 -0.13119976 0.13455021 -0.03375884
-0.1064812 0.053310383 0.13381135 0.07747506 -0.0029519384 0.045971133 0.13665919 -0.00269646
-0.15667523 -0.057680998 -0.0013172642 0.012777813 -0.06788686 -0.08218754 -0.03546156 -0.12834296
0.14542378 -0.072720855 -0.07010842 -0.06191487 -0.03217316 -0.042270888 -0.00081450137 0.0641385
0.017532088 0.03199522 0.04038954 0.1662096 0.07230383 -0.038182236 0.094928145 -0.122416764
-0.031188844 0.08353898 0.04333658 0.054105118 0.11036397 -0.15487467 -0.062529564 0.23424067
0.025772726 0.08669855 0.0074011204 -0.12867615 0.050801903 -0.12136325 -0.07636284 0.005663732
-0.13071078 0.08194091 -0.0027088078 -0.07348631 0.0016529734 0.1366623 0.02006711 -0.025109828
0.01912434 -0.053957846 -0.122974545 -0.08589919 -0.0137356 -0.12812886 -0.07707808 0.017782602
0.044965744 0.1257028 0.072216086 0.03917878 -0.10233241 0.047787953 -0.09588148 0.058674905
-0.1363282 -0.0033142779 -0.07036208 -0.07544086 0.09223371 -0.011027344 0.106962696 -0.07107934
0.16544676 0.14205119 -0.063694775 -0.022015955 -0.035147153 -0.0011913233 0.008012487 -0.10282107
-0.025230471 0.08133656 -0.037284818 -0.044282325 0.16496886 -0.053506274 0.09120278 -0.066563785
-0.11393385 0.116714016 -0.15239061 -0.13257003 -0.046299346 -0.07933073 0.04127932 -0.05749392
-0.008165548 0.026118081 0.05372781 -0.064647436 0.009430223 -0.19444755 0.017987901 -0.016244046
-0.001633819 -0.30273634 -0.09514995 -0.033003144 0.10280027 -0.03411231 -0.10073235 0.132762
0.013734699 0.06991248 -0.10274096 -0.042879906 0.041973602 -0.15004513 0.12465248 -0.10146576
-0.055326603 -0.111598715 -0.0716269 0.10480649 -0.010172669 -0.042590957 0.03535561 0.028195849
-0.2812464 -0.063827015 0.049842417 0.051827744 -0.06870507 -0.047979627 -0.1365585 0.073787466
-0.008667493 -0.14272544 -0.035869636 -0.077521265 -0.031090856 -0.046941433 -0.01812928 -0.05721679
0.028904893 -0.11011886 -0.064109884 -0.0636863 0.07790978 0.074302755 -0.112894386 -0.20295765

model.6.bias f4 [32]
00000000: 79bf d8bd 338e babd 33da 8dbd 1abc c2bb
00000010: dc86 893d 1356 2bbd fcde bc3d 27c9 d13d
00000020: 8b69 a63d be6c c3bd 1fff 0e3d 8c32 3f3d
00000030: 626a be3d f510 dcbd aa5c eebc 2b9b 5ebd
00000040: 2322 38bd 245c 513d d4d1 3cbc 5f14 663d
00000050: 2876 c2bd 6fc7 52bd 5f3e 453d 6661 09bd
00000060: f461 5e3c 5b6d b4bd 8260 d73d 09db 12bb
00000070: b4db 843d 047e f03b f68b d83c 4a30 cb3d
-0.105833955 -0.091091536 -0.06926384 -0.0059428336 0.067151755 -0.041830134 0.092222184 0.10243445
0.081255995 -0.09542225 0.03491127 0.046679065 0.09297635 -0.10745422 -0.02909692 -0.0543472
-0.04495443 0.051113263 -0.011524636 0.05617177 -0.09495193 -0.051459726 0.048155185 -0.033540152
0.0135731585 -0.088099204 0.10516454 -0.0022408387 0.064872175 0.007339241 0.026433926 0.0992132

model.7.weight f4 [32]
00000000: 1d2c 813f 4034 973f 0590 833f 3702 9c3f
00000010: 85af 6d3f 6243 993f d561 5a3f 134f 983f
00000020: 2d77 783f db92 973f a959 953f 09c6 943f
00000030: 3478 5c3f 0c02 963f 782c 613f d944 9c3f
00000040: ae4d 6c3f 74c0 963f 2a99 963f 4766 983f
00000050: 1bbe 923f 9692 973f b5f4 963f 270c 9a3f
00000060: e4f9 653f 0125 993f 2ee0 853f 81c6 953f
00000070: 6d9d 9b3f 395f 953f 99c6 963f 753c 953f
1.0091587 1.181282 1.0278326 1.2188176 0.92845947 1.1973689 0.8530553 1.1899132
0.9705685 1.1841692 1.1667987 1.1622936 0.86120915 1.1719375 0.8795848 1.2208511
0.9230603 1.1777482 1.1765492 1.1906213 1.1464266 1.184161 1.1793429 1.2034959
0.8983443 1.1964418 1.0459039 1.1701204 1.2157418 1.1669685 1.1779357 1.1659075

model.7.bias f4 [32]
00000000: 15b7 963d 27fe 863e 0476 b23d 1641 ad3e
00000010: 1ce3 1bbd 0700 9e3e bd9a 11be 7e3e a33e
00000020: ee3f 2a3d bd2f 853e 849c 8b3e c998 863e
00000030: 0f57 00be 7619 9c3e b2ad babd c7a1 a53e
00000040: 669a 2ebd a2fc 923e b8af 8f3e 3365 963e
00000050: a260 a23e 63e3 8e3e 79d4 8e3e c79f a03e
00000060: 7c7f 6ebd 2812 953e 45ed fb3d 5f3c 873e
00000070: 62cc a83e b85f 8b3e 9ff2 893e 927e 883e
0.07359139 0.26365778 0.08713916 0.3383872 -0.038058385 0.30859396 -0.14219184 0.31883615
0.041564874 0.26012984 0.2726785 0.2628844 -0.1253321 0.30488175 -0.09115161 0.3234999
-0.042627715 0.2870837 0.2806375 0.29374084 0.3171435 0.27907857 0.2789648 0.313719
-0.058227047 0.29115415 0.12301115 0.26413247 0.32968432 0.27221465 0.26942918 0.26659065

model.7.running_mean f4 [32]
00000000: b3c7 50be 54e8 c6bd 4f26 edbd 056a 83bf
00000010: 3c43 85bf b338 2dbf 0c90 e73b 9b02 56bf
00000020: 67e3 883d d96d c0be c90e 3dbf d83c 15bf
00000030: c427 2c3f 9072 5ebf d1cb f0be d435 13bf
00000040: 2f68 53bf 7603 a7be 305e 25bf 41e8 7fbd
00000050: 826a 97bf 8ab6 bbbd 21ea 02bf cf50 10bf
00000060: 7e47 86be b98b eebe a1ea ca3e ec9d b13e
00000070: f85e 3abf c10d 4fbf 3d96 a6be 7640 66bf
-0.20388679 -0.09712282 -0.115795724 -1.026673 -1.0411143 -0.6766464 0.0070667323 -0.83597726
0.066839986 -0.37583807 -0.73850685 -0.58295965 0.6724818 -0.8689356 -0.470305 -0.5750401
-0.82580847 -0.32619828 -0.64596844 -0.062477354 -1.1829379 -0.09165676 -0.511385 -0.56373304
-0.2622642 -0.46590975 0.39632133 0.34690797 -0.7280116 -0.8088036 -0.32536498 -0.8994211

model.7.running_var f4 [32]
00000000: 735e dc3e f6a9 8f3f 6485 4a3f fa89 1d3f
00000010: 64b6 db3d dbd4 0040 01c8 323d b700 773e
00000020: 5f65 5c3f 48c9 7f3f 851d ab3f 7fe4 de3e
00000030: 5dd7 cb3d 5f83 a43e adc1 a43d b901 0a3f
00000040: 1ebb 7e3e 6dd0 a93f 24c7 673e a5c2 0d3f
00000050: 6d99 c63d 52a9 903f 4a17 8c3f ab7b e13f
00000060: bee2 973e 6d33 e43f addc 813f 990e a23f
00000070: 0e56 813f ab6a 073f b6c6 213f 8c62 c03e
0.4304081 1.1223743 0.7910979 0.6153866 0.107281476 2.0129917 0.04364777 0.24121366
0.8609218 0.99916506 1.3368384 0.43533704 0.09953187 0.32131478 0.08044753 0.5390888
0.24876067 1.3266732 0.2263456 0.5537513 0.096972324 1.1301672 1.0944607 1.7615865
0.29665178 1.7828194 1.014547 1.2660705 1.0104387 0.5289714 0.63193834 0.37575185

model.9.weight f4 [1, 32]
00000000: 66ed cc3d fdfb b23e 0c4d e63d b7ef 553e
00000010: 8207 863d 78d3 783e 7b61 5fbb f1a8 7b3e
00000020: 7604 ac3d a54b b43e dc6a b83e da8d 943e
00000030: 636c 82bc ea61 8a3e 6cce 983c e64b 5a3e
00000040: e51d 733d ec6e 9c3e fa5d 353e 4422 803e
00000050: ffeb 663e 5ee9 9f3e 390e 9c3e 5a61 443e
00000060: f83c 3b3d 320f 873e 07bd f03d 5c9d 333e
00000070: e59d 583e 6335 b13e 3af0 a53e 1e8f 303e
0.10006218 0.34957877 0.11245164 0.20892225 0.06544401 0.24299419 -0.0034085202 0.24576165
0.08399288 0.35213962 0.36019027 0.29014474 -0.015920823 0.27027828 0.018653117 0.21318015
0.05935468 0.30553377 0.1771163 0.25026143 0.22550963 0.31232733 0.304796 0.19177762
0.04571244 0.2637878 0.11754804 0.17540497 0.21153982 0.34611043 0.3240984 0.17242095
